data.pth (torch, 5271 bytes, 6 tensors)

l1.weight f4 [8, 59]
0.15987697 -0.13928862 -0.113845035 -0.122462116 -0.15273075 -0.23247547 -0.117092855 -0.031125221
0.2743126 -0.07056749 -0.035816196 -0.14250045 -0.14739554 -0.13190672 0.052057117 0.2889858
-0.021955907 -0.13081096 -0.1207071 0.08145847 0.009126022 0.10149134 0.25987855 -0.14490293
0.0886839 -0.252711 0.068845905 -0.23431051 -0.25768644 -0.1113522 -0.1346245 0.3927264
0.334063 0.31685442 -0.08506785 -0.13849139 0.20257832 0.05906223 0.0998089 0.30155355
0.34902975 0.061888147 -0.025036164 0.12226513 -0.028603509 0.29549354 -0.08564595 0.19456032
-0.12587754 0.36991072 0.072284855 0.04810547 0.053138103 -0.198421 0.30929598 0.15445463
-0.15319912 0.26851693 0.027688174 0.46967292 0.059091855 0.22823368 0.16277021 0.026691532
0.028395662 0.053796653 0.2963638 -0.008089742 0.057603315 -0.047307327 0.004807983 -0.2371946
0.24775259 -0.11784296 -0.19730756 0.442173 -0.029101934 0.08820838 -0.16041431 0.023969516
-0.07605963 0.095175825 -0.18749337 0.010294957 -0.2042729 0.16027276 -0.2239619 -0.19554527
0.040993348 -0.29180208 -0.13137779 -0.0089822635 -0.061717104 -0.08109413 0.006046322 -0.09573158
0.44149375 0.15111256 -0.103999145 -0.21648386 0.2867651 0.0648551 0.06797725 -0.09746052
-0.0531335 0.076079376 -0.19097829 0.22107218 -0.18328625 0.37830183 0.42404705 0.14668518
-0.09361958 -0.19480133 -0.11133083 0.17199118 -0.16171446 0.30909878 0.3863639 0.12891482
0.08995138 0.08082709 0.0863133 0.069646806 0.0717738 0.11851717 0.48409024 0.168563
0.11474256 0.2838326 0.22639497 0.32117346 0.041709665 -0.16446066 -0.18715632 0.010328515
0.09057093 -0.021179454 0.102888346 0.28079417 0.27242345 0.041152485 -0.16890347 0.28711066
0.37104073 0.192529 -0.0045149596 0.105535954 0.13387491 0.54914594 0.51339626 0.49357945
0.08906537 0.2567454 -0.09948456 -0.2930611 0.36605895 0.3804206 -0.18493214 -0.21125196
0.059291366 0.23817793 0.11542113 -0.21028922 0.0762001 -0.16555497 -0.20941725 -0.13969153
-0.14675443 0.54161316 0.44922253 0.3384767 -0.18384865 -0.11655507 -0.21787699 0.011735266
0.33134067 -0.15738696 0.043357033 -0.087931104 -0.1982903 -0.15778293 -0.2435845 -0.09841199
0.10431445 -0.033996 -0.10424858 -0.12460418 -0.17564967 -0.0594827 -0.20562962 -0.04263123
0.10483792 -0.23438688 -0.09890508 -0.11298605 0.28569224 -0.11087562 0.1419032 0.010950839
-0.16976805 -0.26003614 -0.25570872 -0.015019895 -0.2592606 -0.2600961 0.07278447 -0.068429604
-0.034192085 -0.0263273 0.10037812 -0.03902522 -0.062174127 0.24131899 0.026453223 -0.06724712
0.117041565 0.39173836 -0.065077156 -0.018110296 -0.051621675 0.09937844 0.30940026 -0.16142774
0.3831522 -0.075709134 0.045809608 0.06254283 -0.26013973 -0.11481682 -0.11665289 0.34038448
0.2896108 -0.04886565 0.1375409 -0.1432055 0.28840786 -0.025653565 -0.15114945 -0.12680686
-0.09554144 -0.09296928 -0.045216013 0.13702968 -0.109701276 0.3432493 0.107727416 -0.1458493
0.4469771 -0.25905433 0.29793334 -0.20084424 0.28239045 0.41016838 -0.19213414 -0.06810968
00000000: cab6 233e ada1 0ebe 9627 e9bd 6bcd fabd
00000010: 7365 1cbe 0d0e 6ebe 61ce efbd 52fa febc
00000020: b372 8c3e b085 90bd 01b4 12bd a3eb 11be
00000030: dbee 16be 8e12 07be d839 553d f2f5 933e
00000040: e0dc b3bc 4ff3 05be 4935 f7bd b3d3 a63d
00000050: 5085 153c b1da cf3d cd0e 853e 6f61 14be
00000060: e89f b53d 5663 81be 15ff 8c3d 18ef 6fbe
00000070: 7aef 83be 9f0c e4bd 01db 09be 6f13 c93e
00000080: 4e0a ab3e be3a a23e 0e38 aebd b0d0 0dbe
00000090: b170 4f3e 3deb 713d 9c68 cc3d 3a65 9a3e
000000a0: 07b4 b23e 6d7e 7d3d a418 cdbc 2466 fa3d
000000b0: e851 eabc ee4a 973e 2567 afbd d23a 473e
000000c0: 0be6 00be f064 bd3e 150a 943d 3e0a 453d
000000d0: 57a7 593d e02e 4bbe 0b5c 9e3e 5b29 1e3e
000000e0: 3be0 1cbe 0d7b 893e 4fd2 e23c f878 f03e
000000f0: 4d0a 723d 17b6 693e 3cad 263e 33a8 da3c
00000100: 059e e83c e159 5c3d ffbc 973e d68a 04bc
00000110: 74f1 6b3d 54c5 41bd 498c 9d3b 24e3 72be
00000120: dbb2 7d3e a657 f1bd fe0a 4abe 8064 e23e
00000130: 2e67 eebc 98a6 b43d a643 24be b85b c43c
00000140: 27c5 9bbd 8beb c23d 43fe 3fbe 2eac 283c
00000150: ea2c 51be 8b1e 243e 4556 65be 053d 48be
00000160: a4e8 273d 1567 95be e687 06be 582a 13bc
00000170: 13cb 7cbd ae14 a6bd 3a20 c63b eb0e c4bd
00000180: 780b e23e 40bd 1a3e 81fd d4bd f2ad 5dbe
00000190: e0d2 923e c0d2 843d a837 8b3d 6299 c7bd
000001a0: 83a2 59bd 81cf 9b3d d08f 43be bf60 623e
000001b0: 64af 3bbe c7b0 c13e b21c d93e a434 163e
000001c0: 9fbb bfbd 007a 47be 6b01 e4bd 751e 303e
000001d0: 7a98 25be 3242 9e3e 7dd1 c53e 3f02 043e
000001e0: 6e38 b83d ac88 a53d 07c5 b03d fca2 8e3d
000001f0: 24fe 923d 21b9 f23d adda f73e c79b 2c3e
00000200: 26fe ea3d 8252 913e 15d4 673e d970 a43e
00000210: c1d7 2a3d 6068 28be e8a5 3fbe ef38 293c
00000220: 407d b93d 8980 adbc 20b7 d23d 41c4 8f3e
00000230: 167b 8b3e 828f 283d 08f5 2cbe 2b00 933e
00000240: 0df9 bd3e 5226 453e 3af2 93bb 3c23 d83d
00000250: 8116 093e d494 0c3f f06d 033f 72b6 fc3e
00000260: e867 b63d 2274 833e 90be cbbd 1b0c 96be
00000270: 146c bb3e 7dc6 c23e da5e 3dbe 6f52 58be
00000280: 81db 723d eae4 733e ea61 ec3d 0f56 57be
00000290: cc0e 9c3d 3e87 29be 7a71 56be 4c0b 0fbe
000002a0: cb46 16be 29a7 0a3f 7f00 e63e d14c ad3e
000002b0: d242 3cbe 6db4 eebd 251b 5fbe 4645 403c
000002c0: 7ca5 a93e 0c2a 21be 2597 313d 3915 b4bd
000002d0: 9d0c 4bbe d991 21be 376e 79be 3a8c c9bd
000002e0: d0a2 d53d 643f 0bbd 4880 d5bd 7a30 ffbd
000002f0: 82dd 33be 22a4 73bd 9290 52be 169e 2ebd
00000300: 43b5 d63d 1d03 70be bf8e cabd 3b65 e7bd
00000310: 4146 923e c212 e3bd 134f 113e 266b 333c
00000320: add7 2dbe 7523 85be 41ec 82be 0116 76bc
00000330: cebd 84be 512b 85be 0610 953d d224 8cbd
00000340: 000d 0cbd 5aac d7bc 0b93 cd3d e9d8 1fbd
00000350: 4caa 7ebd 531c 773e 6eb4 d83c dcb8 89bd
00000360: 7db3 ef3d ee91 c83e 2c47 85bd 0b5c 94bc
00000370: 4071 53bd ec86 cb3d b669 9e3e 504d 25be
00000380: 862c c43e 640d 9bbd dba2 3b3d 7516 803d
00000390: 0931 85be 1525 ebbd b6e7 eebd e046 ae3e
000003a0: de47 943e 5927 48bd 86d7 0c3e 76a4 12be
000003b0: 32aa 933e 6d27 d2bc ecc6 1abe a8d9 01be
000003c0: 3bab c3bd ae66 bebd 6d34 39bd 8251 0c3e
000003d0: 10ab e0bd 5fbe af3e 31a0 dc3d 8559 15be
000003e0: 2fda e43e c5a2 84be b88a 983e 1daa 4dbe
000003f0: 7b95 903e 9701 d23e d0be 44be 177d 8bbd

l1.bias f4 [8]
0.2513697 0.21655849 0.2188007 0.26029438 0.2896473 0.20212123 0.46184844 0.36514854
00000000: 88b3 803e 82c1 5d3e 4a0d 603e 4e45 853e
00000010: a74c 943e def8 4e3e 6677 ec3e c0f4 ba3e

l2.weight f4 [8, 8]
0.647443 1.1076407 0.38210732 -0.071716 -0.033653352 0.2729579 0.5061119 -0.3499083
-0.40545088 -0.14860435 1.065967 -0.43658993 0.14982228 -0.08747124 0.66605115 -0.695854
0.746572 0.23934563 0.18210928 0.5249274 -0.42097893 0.53504723 0.27021876 0.01506766
0.8383785 -0.83111113 0.50580746 0.60376674 0.02762421 0.083874896 0.11114302 0.57498574
0.4751899 -0.08651823 0.0970239 0.8520779 -0.8125208 -0.41564938 1.1349674 0.12844314
0.22316161 -0.06601329 -0.6835081 0.57722825 0.038389936 0.379152 0.41190165 1.0251968
-0.15466265 0.45750692 0.99977934 -0.5540501 0.80744576 0.35164225 -0.08632745 0.38758886
-0.6191446 -0.17243168 0.3316297 -0.35366368 -0.033952378 -0.5152048 0.73245203 -0.15755971
00000000: d3be 253f 2cc7 8d3f 92a3 c33e d7df 92bd
00000010: 19d8 09bd 23c1 8b3e 8d90 013f 2e27 b3be
00000020: 4297 cfbe bd2b 18be 9b71 883f b788 dfbe
00000030: 036b 193e 1f24 b3bd 5482 2a3f 7d23 32bf
00000040: 581f 3f3f 0517 753e db7a 3a3e a461 063f
00000050: 8d8a d7be dbf8 083f 1d5a 8a3e 59de 763c
00000060: f99f 563f b3c3 54bf 997c 013f 7590 1a3f
00000070: 2b4c e23c 9ac6 ab3d f49e e33d 4432 133f
00000080: 174c f33e 7830 b1bd 77b4 c63d c721 5a3f
00000090: 5d01 50bf ffcf d4be 9d46 913f 9986 033e
000000a0: 7a84 643e fa31 87bd 63fa 2ebf 3bc5 133f
000000b0: c43e 1d3d 3620 c23e c6e4 d23e a639 833f
000000c0: e35f 1ebe 593e ea3e 8af1 7f3f 3ad6 0dbf
000000d0: c4b4 4e3f 740a b43e 72cc b0bd 0c72 c63e
000000e0: 4380 1ebf ee91 30be 5ecb a93e 6813 b5be
000000f0: a611 0bbd 76e4 03bf fa81 3b3f 5557 21be

l2.bias f4 [8]
-0.1059467 0.52488905 0.24757901 -0.06458931 0.3071208 0.4656545 0.06965168 0.40889764
00000000: 95fa d8bd 215f 063f 5a85 7d3e 6647 84bd
00000010: f03e 9d3e 446a ee3e 8aa5 8e3d 085b d13e

l3.weight f4 [8, 8]
-1.1355164 -0.47895026 -0.54869384 0.39362875 -1.0888085 0.18323511 0.25479928 -0.5608927
0.01848164 0.23248638 0.043269657 -1.0054795 0.39375293 -0.050227094 -0.53954685 0.7682109
-0.48258224 -0.48964548 0.35876375 0.44220266 0.5536672 0.49123472 -1.0558705 -1.0958135
0.30270496 0.019727012 0.2440898 0.39007607 0.2932843 -0.99558836 -0.39814135 -0.19984771
0.15238744 -0.60245705 0.045200787 -0.4898812 -0.7532857 0.38101354 -0.11551302 -1.2770956
-1.2209916 0.31145298 -0.26359567 -0.26937827 -0.65209144 0.07595807 0.15297571 0.48608127
0.040388726 -0.18619847 -0.05082651 -0.90303695 0.16926739 0.02362453 -0.57693565 -0.07463755
0.22528021 0.30322695 0.29416946 -0.40884018 -1.0402704 -0.6001877 0.2861421 -0.6018264
00000000: 9a58 91bf f838 f5be 3377 0cbf b589 c93e
00000010: 145e 8bbf fca1 3b3e 0d75 823e aa96 0fbf
00000020: cf66 973c e910 6e3e 863b 313d 8db3 80bf
00000030: fc99 c93e edba 4dbd be1f 0abf 78a9 443f
00000040: 0515 f7be d0b2 fabe e2af b73e 6368 e23e
00000050: 22bd 0d3f 1e83 fb3e c426 87bf 9e43 8cbf
00000060: 25fc 9a3e 8b9a a13c adf2 793e 0db8 c73e
00000070: 5c29 963e e1de 7ebf 2fd9 cbbe e1a4 4cbe
00000080: 740b 1c3e a03a 1abf 7624 393d b5d1 fabe
00000090: 55d7 40bf 3514 c33e 1792 ecbd de77 a3bf
000000a0: 7449 9cbf c476 9f3e 03f6 86be f3eb 89be
000000b0: 77ef 26bf e88f 9b3d aaa5 1c3e a5df f83e
000000c0: a66e 253d d0aa 3ebe 752f 50bd 6e2d 67bf
000000d0: 6e54 2d3e 3b88 c13c 0eb2 13bf 92db 98bd
000000e0: dbaf 663e 9040 9b3e 619d 963e 8053 d1be
000000f0: 9527 85bf e7a5 19bf 3881 923e 4c11 1abf

l3.bias f4 [8]
-0.35602102 0.097986296 0.20574875 -0.6241783 0.21732262 0.41243112 -0.19102223 -0.2338022
00000000: 6348 b6be 0aad c83d cdaf 523e 26ca 1fbf
00000010: d289 5e3e 2c2a d33e 559b 43be d869 6fbe
