data.pth (torch, 5271 bytes, 6 tensors)

l1.weight f4 [8, 59]
00000000: 8247 e83e 2815 113f 19f9 113f 2be1 093f
00000010: d6a8 353f b590 243f 3f5e 2d3f c0e9 db3e
00000020: 9f1d 6cbe bf54 d63e e54c 64be e9ba 013f
00000030: 65e8 64be 4253 323f 8923 d53e a19e 0abf
00000040: f37c 093c 4a86 1dbe dedb 013f 2c77 87be
00000050: 1f3d 933e 6b3f 99bd ed90 233d 64a9 9cbe
00000060: 7c01 903d 3c30 9ebe 3e69 f53e 0fc0 e0be
00000070: 7cf9 e5be be30 ef3e c576 efbe 1423 b0bc
00000080: db23 47be 920c 95bd e79d a6be b84b 273f
00000090: 3066 8abe 9cfb dcbc a7ff c33e a870 febd
000000a0: 6899 0abf 449b 0abf f292 d73e 74cd fe3e
000000b0: da85 f93e 1dd4 8dbe 700d 0c3f 30aa 08bf
000000c0: c3a2 0abf 919a 0abf dc79 2e3d 16fe 363f
000000d0: 97ef 053f 7954 923e 3c9a 0abf 91d8 8abe
000000e0: a831 06bf 935c 87be 9b84 1f3f c6a3 1b3e
000000f0: c96b de3e c8fb 063f 020c 013f 700f bf3e
00000100: 8953 363f 4ab9 c43e f65b 54bc 8faf 26bc
00000110: d2b3 80bc e7d9 ca3e 79bd e73e 7dc1 7b3e
00000120: 01d7 0f3f 87c7 a9bc 8187 23be d3b1 06bf
00000130: aa16 e23e b6f3 073f b2cb 833b bc10 3dbe
00000140: 0da0 1bbe c9a2 0dbe 0502 ca3e 7fb2 06bf
00000150: c4df ea3e c4e7 183d 3b28 273f e859 123f
00000160: ff5c 2bbd 5c3e a03e bef0 e2bd b0c2 1abe
00000170: eabb f1bd c1a5 043f 2341 9e3e 95af 87bd
00000180: 5b48 d3be 24da 98bc f075 11be c55c 88be
00000190: b134 433f 6c2b 293f 193a 7ebd cc55 2fbe
000001a0: 86df 5abb 727b a93e eea4 87bd bee2 4e3f
000001b0: e0dc fcbd 6530 99be d851 0abe a800 ecbc
000001c0: 4720 06be b569 50be 06e3 88bc 5b1b 453f
000001d0: 5893 70bd 9a26 3e3e e5e8 df3e 8c9c 64be
000001e0: 18f0 4dbe 0627 46be a969 64be d054 28be
000001f0: 300b 84be 1c15 453e 0296 253f fc86 b53b
00000200: 2dc7 05bd a0da 0dbe 52e3 96be e0ad 31be
00000210: b194 00be a5f2 8e3d b726 133f 7b4a 79bd
00000220: dbec 51be e486 88bc c345 31bd 543e 2d3f
00000230: 43f9 f73e 08c1 f2bd 7900 493f a22d 4cbe
00000240: da96 e23e faf4 97be 9e3f 7dbe 5747 7bbd
00000250: 6f4b 96be 4e51 043f b929 373f 1ec5 113f
00000260: bf8c 7b3c 8f86 81be 1d84 363e 0bbc 013f
00000270: 78d2 b13e 1399 2c3f 8b42 ce3d 4c90 27bf
00000280: 48b4 58be cc98 a33c 74ec a23a 1bbd 223e
00000290: d78e 24be 4e1c 4d3e 243d 1dbf 9b6f 7c3e
000002a0: 64e6 1b3f 68b9 153f 6003 dc3e 3b95 30be
000002b0: 01d8 013e 495a 6f3e 2dfd 23bf 12e5 fa3d
000002c0: 6c64 193f 8388 f33e 2499 023f 763a fb3e
000002d0: 4364 063f 99ef 353f fb83 0c3f dfdd 213f
000002e0: df91 5f3e bbc2 23be 2c48 c83e b552 d2be
000002f0: 554c 0d3f 96da 40bd d283 213f 4b9c 153f
00000300: 2959 143f c16a d8be 25be b8be 3104 253f
00000310: 04dd e43e 80bd c43e 1d1c 0bbd 80b2 0abd
00000320: bbdc 81be 85b3 c7be e1f1 1cbf 227e d63e
00000330: 5b4e 1dbf 2e4c 1dbf e6e3 d43e 00e3 e7be
00000340: 1bcc f3bc 289f 65be 59d0 2abe aa96 bcbe
00000350: 3061 263f b7c3 b03e 86ab 35bd 2362 733e
00000360: 810b 0abd 2214 043f 94e4 8d3e 9172 223f
00000370: 002e ef3e e6b3 103f 6102 083f f803 2a3f
00000380: 413a 313f ba12 0f3e ea4c 333f 32b7 a8bd
00000390: 0238 d03e c484 033f 41a6 283e 0775 423f
000003a0: 6989 0a3f 389b 643e b193 2c3f e332 d0bd
000003b0: cbc0 b0be 5aff a9be fb2b d3be 549a c1be
000003c0: afb8 babe 9df3 84be cb4c 91be 3d95 e5bd
000003d0: d74e e33e 0c3c aebd eb1c 0a3f 9b6b 74be
000003e0: 1466 f73e cd56 a3be 36f6 1cbe e722 113f
000003f0: 0930 87be 9602 2f3f 2491 92be 658a fe3e
0.45367056 0.56672907 0.5702072 0.53859204 0.7096075 0.64283305 0.67721933 0.42951775
-0.23058175 0.4186153 -0.22294958 0.5067583 -0.22354276 0.6965829 0.41628674 -0.541483
0.008391607 -0.15383258 0.50726116 -0.26458108 0.2875757 -0.07482799 0.039933134 -0.30597985
0.07031533 -0.30896175 0.47931856 -0.4389653 -0.44916904 0.46716875 -0.467703 -0.021501102
-0.19447272 -0.07277788 -0.32542345 0.6534991 -0.27031088 -0.026975445 0.38280985 -0.12423831
-0.5414033 -0.54143167 0.42104298 0.49766123 0.48734933 -0.27700892 0.54708004 -0.53384686
-0.54154605 -0.541421 0.042596683 0.71481454 0.5231871 0.28580073 -0.5414159 -0.27118352
-0.5241952 -0.26437816 0.62311715 0.15199193 0.4344161 0.5272794 0.5040895 0.37316465
0.71221215 0.38422614 -0.012961378 -0.010173692 -0.015710745 0.3961937 0.45261744 0.24585529
0.56187445 -0.020725025 -0.1596966 -0.5261509 0.44157916 0.5310625 0.004022085 -0.18463415
-0.15197773 -0.13831629 0.39454666 -0.52616113 0.45873845 0.037330404 0.6529576 0.57168436
-0.041836735 0.31297576 -0.11081074 -0.1511333 -0.1180342 0.5181542 0.3090907 -0.066252865
-0.4126614 -0.018658705 -0.14205146 -0.26633278 0.76252276 0.6608188 -0.062067125 -0.17122573
-0.003339739 0.33101994 -0.06623255 0.8081473 -0.12346816 -0.29919735 -0.13507783 -0.028808907
-0.1309825 -0.20352824 -0.016709816 0.76994866 -0.058734268 0.18569413 0.43732372 -0.22325343
-0.2011112 -0.19350824 -0.22305931 -0.16438603 -0.25789785 0.19246334 0.6468202 0.005539773
-0.032660652 -0.1385293 -0.29470307 -0.17351484 -0.12556721 0.069798745 0.5748095 -0.060862046
-0.2050051 -0.016665883 -0.04327942 0.6767323 0.4843236 -0.11853224 0.78516346 -0.19939283
0.44255716 -0.2967909 -0.247313 -0.06134733 -0.29354426 0.5168656 0.7154804 0.569414
0.015353381 -0.25297973 0.17823835 0.50677556 0.34730887 0.6742107 0.10071286 -0.65454555
-0.21162522 0.01997032 0.0012430088 0.1589245 -0.16070114 0.20030329 -0.6142142 0.24651949
0.60898423 0.5848603 0.42971325 -0.17244427 0.12680055 0.23374285 -0.6405819 0.12250723
0.59918857 0.47565088 0.51014924 0.4906804 0.5249674 0.7106872 0.54888886 0.63229173
0.21832989 -0.15992253 0.39117563 -0.41078725 0.551946 -0.04708346 0.63091767 0.5844161
0.5794855 -0.42268947 -0.3608257 0.6445952 0.44699872 0.38425827 -0.033962358 -0.033861637
-0.25363716 -0.3900415 -0.6130658 0.41893107 -0.61447686 -0.61444366 0.41580123 -0.45290375
-0.029760411 -0.22423995 -0.16681041 -0.36833698 0.64992046 0.3452432 -0.04435303 0.23767905
-0.033702377 0.5159322 0.27713454 0.63456064 0.46714783 0.56524503 0.5312863 0.66412306
0.69229513 0.13971987 0.70039237 -0.08238067 0.4066773 0.5137446 0.16469671 0.7595982
0.5411592 0.22324836 0.6741286 -0.10165956 -0.3452209 -0.3320263 -0.41244492 -0.37813056
-0.36469027 -0.25967112 -0.283789 -0.112101056 0.44396088 -0.08507547 0.53950375 -0.23869173
0.48320067 -0.3190216 -0.15328297 0.5669388 -0.26403835 0.6836332 -0.28626359 0.49714962

l1.bias f4 [8]
00000000: a89d 0a3f 9cb2 063f c99a 273f 3a4f 1d3f
00000010: 7da6 263f 99d7 393f e180 273f 14f7 e33e
0.54146814 0.52616286 0.6547056 0.61449015 0.6509779 0.725946 0.6543103 0.44524443

l2.weight f4 [8, 8]
00000000: 2c37 89be cb21 783f 311d 1ebf 45b7 3bbe
00000010: 511a 673f 58b0 4d3f fe41 553f 7f26 fbbe
00000020: 753f 6f3f ecf5 193f 6ced 2bbf 5120 813f
00000030: cdaf 5fbf 3200 1e3f 73e8 453f 11f9 a43e
00000040: c41f 823f 0326 92bc c2ab 653f a4f3 643f
00000050: b71a 7cbf 2073 3ebf 05a5 303f d255 ed3e
00000060: 2655 5ebf f350 4d3f 13c9 80bf 8b27 833f
00000070: e343 463f df27 813f 9686 fb3e 2d35 00bf
00000080: 59e7 143f 7c57 83bf 6554 443f ce5f 0b3f
00000090: b0d8 323f 85e0 bf3d ad4e 67bf 5cc6 8d3f
000000a0: 8063 943b 9648 583e f41c b5bd 3077 64bd
000000b0: ec4d b1be 5079 82bd 0074 94be 100f 2bbd
000000c0: e6b9 af3e b61b 543f 86ed d63c e3ec 89bf
000000d0: 798a 653f 9f8a 83bf 0f44 303f 796d 39bf
000000e0: 68a7 17bf 8439 3fbf c608 1e3f a05d 653f
000000f0: 0e70 533f 93fe 7b3f 3e6a d1be d4cd 8b3f
-0.26799905 0.96926564 -0.6176329 -0.1833163 0.9027453 0.80347204 0.8330382 -0.49052808
0.934562 0.6014087 -0.6715915 1.0087987 -0.87377626 0.6171905 0.77307814 0.32221273
1.0165944 -0.017840391 0.89715207 0.89434266 -0.98478264 -0.74394417 0.690018 0.46354538
-0.86848676 0.80201644 -1.0061363 1.0246443 0.77447337 1.0090293 0.49126118 -0.5008114
0.5816551 -1.0261073 0.76691276 0.5444306 0.6986189 0.093689956 -0.90354425 1.107616
0.004528463 0.2112144 -0.08843413 -0.05577773 -0.34629762 -0.06370795 -0.2899475 -0.04176241
0.34321517 0.82854784 0.026236307 -1.0775417 0.8966442 -1.0276679 0.6885385 -0.72432667
-0.59239817 -0.74697137 0.6173214 0.89595985 0.82592857 0.98435324 -0.4090137 1.0922189

l2.bias f4 [8]
00000000: 89b7 143f a071 29bb 113c 143f 581f 453f
00000010: d899 063f 8d8d 66be 06b9 063f cdb8 f6bd
0.5809255 -0.002585508 0.57904154 0.7700095 0.52578497 -0.22514935 0.52626073 -0.12046967

l3.weight f4 [8, 8]
00000000: 31df 31bf 4368 093f 4506 8fbe 62b3 80be
00000010: 0c20 e93e b6db 133e d6e1 c3be e948 af3c
00000020: af39 d93e 811f 4e3f ee07 033f 8ba0 953e
00000030: 2b05 5ebf c4a8 fa3d eb49 16bf b94e 0fbf
00000040: e632 843e 15c5 ddbe 2003 0cbf 98b3 1f3f
00000050: 5a0b 183c 8356 7cbe e162 3dbf 1345 353f
00000060: 0e89 0fbe b92b 6abf 7a09 5bbf 3580 75bf
00000070: c51b 1d3f 3901 66be 9658 1ebf 9ce4 733f
00000080: 93a8 45bf db8e 8cbf 7219 2d3f 28da 72bf
00000090: b753 473f c72b 7ebe d5a9 53bf d750 b83d
000000a0: a89b 593f 31da 4cbf 3323 64be c9ae 043f
000000b0: 8367 1abf e8f5 d53d e893 5a3f a39b 74bf
000000c0: f0fa 533f 25f4 793e b5af 94bf 0f5f 8b3f
000000d0: 885a 7fbf 300e 6ebd 7d0b 2ebf 9e93 fabe
000000e0: 4a46 08bf 4ecf 463f aa5a 803f 7b99 45bf
000000f0: b320 3dbe d2cc 1a3e 37d7 74be c6fa 2abf
-0.6948119 0.53674716 -0.2793447 -0.25136858 0.45532262 0.14439282 -0.38258237 0.021397071
0.42426822 0.8051682 0.51183975 0.29224047 -0.86726636 0.12239221 -0.5870654 -0.55979496
0.25820082 -0.43314424 -0.5469227 0.62383413 0.00928005 -0.24642377 -0.73979 0.70808524
-0.14017126 -0.91472965 -0.85561335 -0.95898753 0.613705 -0.22461404 -0.6185392 0.95270705
-0.7721035 -1.0981096 0.6761695 -0.9486413 0.77862114 -0.24821387 -0.8268102 0.08999794
0.8500314 -0.80020434 -0.22279052 0.518292 -0.60314196 0.104472935 0.8538194 -0.9554998
0.82804775 0.2440954 -1.1616122 1.0888385 -0.99747515 -0.058119 -0.6798628 -0.48940748
-0.5323225 0.7766007 1.0027668 -0.7718732 -0.18469505 0.15117195 -0.23910223 -0.667889

l3.bias f4 [8]
00000000: 10ac 1bbe 0125 54be 8e63 b23d 0520 4abf
00000010: 826c 3c3f 872a ac3e 2380 14be 7028 793d
-0.15202355 -0.20717241 0.08710395 -0.7895511 0.7360307 0.33626196 -0.14502005 0.06082958
